7767517
5 5
Input                    input                    0 1 input
InnerProduct             /mlp/mlp.0/Gemm          1 1 input /mlp/mlp.1/Relu_output_0 0=128 1=1 2=16128 9=1
InnerProduct             /mlp/mlp.2/Gemm          1 1 /mlp/mlp.1/Relu_output_0 /mlp/mlp.3/Relu_output_0 0=128 1=1 2=16384 9=1
InnerProduct             /mlp/mlp.4/Gemm          1 1 /mlp/mlp.3/Relu_output_0 /mlp/mlp.5/Relu_output_0 0=64 1=1 2=8192 9=1
InnerProduct             /mlp/mlp.6/Gemm          1 1 /mlp/mlp.5/Relu_output_0 output 0=65 1=1 2=4160
